…
The sparsity of the dataset: 99.98071694707788%
Thu 15 Jan 2026 15:59:03 INFO 
====Testing====
baby
The number of users: 19445
Average actions of users: 1.1150424273592183
The number of items: 5549
Average actions of items: 3.907370697422959
The number of inters: 21682
The sparsity of the dataset: 99.97990552482683%
Thu 15 Jan 2026 15:59:06 INFO 

=================================


Thu 15 Jan 2026 15:59:06 INFO =========1/1: Parameters:['reg_weight', 'learning_rate', 'dropout', 'mask_weight_f', 'temp', 'seed']=(0.001, 0.0001, 0.5, 1.5, 0.6, 999)=======
Thu 15 Jan 2026 15:59:11 INFO PMMRec(
  (mlp): Linear(in_features=128, out_features=128, bias=True)
  (image_embedding): Embedding(7050, 4096)
  (image_trs): Linear(in_features=4096, out_features=64, bias=True)
  (text_embedding): Embedding(7050, 384)
  (text_trs): Linear(in_features=384, out_features=64, bias=True)
  (MLP_user): Linear(in_features=128, out_features=64, bias=True)
  (v_gcn): GCN(
    (MLP): Linear(in_features=4096, out_features=256, bias=True)
    (MLP_1): Linear(in_features=256, out_features=64, bias=True)
    (conv_embed_1): Base_gcn(64, 64)
  )
  (v_gcn_n1): GCN(
    (MLP): Linear(in_features=4096, out_features=256, bias=True)
    (MLP_1): Linear(in_features=256, out_features=64, bias=True)
    (conv_embed_1): Base_gcn(64, 64)
  )
  (v_gcn_n2): GCN(
    (MLP): Linear(in_features=4096, out_features=256, bias=True)
    (MLP_1): Linear(in_features=256, out_features=64, bias=True)
    (conv_embed_1): Base_gcn(64, 64)
  )
  (t_gcn): GCN(
    (MLP): Linear(in_features=384, out_features=256, bias=True)
    (MLP_1): Linear(in_features=256, out_features=64, bias=True)
    (conv_embed_1): Base_gcn(64, 64)
  )
  (t_gcn_n1): GCN(
    (MLP): Linear(in_features=384, out_features=256, bias=True)
    (MLP_1): Linear(in_features=256, out_features=64, bias=True)
    (conv_embed_1): Base_gcn(64, 64)
  )
  (t_gcn_n2): GCN(
    (MLP): Linear(in_features=384, out_features=256, bias=True)
    (MLP_1): Linear(in_features=256, out_features=64, bias=True)
    (conv_embed_1): Base_gcn(64, 64)
  )
  (id_gcn): GCN(
    (MLP): Linear(in_features=64, out_features=256, bias=True)
    (MLP_1): Linear(in_features=256, out_features=64, bias=True)
    (conv_embed_1): Base_gcn(64, 64)
  )
  (start_moe_user): Align_MoE(
    (gate_txt): Linear(in_features=64, out_features=4, bias=True)
    (gate_img): Linear(in_features=64, out_features=4, bias=True)
    (gate_id): Linear(in_features=64, out_features=4, bias=True)
    (expert): ModuleList(
      (0-3): 4 x Linear(in_features=192, out_features=192, bias=True)
    )
  )
  (start_moe_item): Align_MoE(
    (gate_txt): Linear(in_features=64, out_features=4, bias=True)
    (gate_img): Linear(in_features=64, out_features=4, bias=True)
    (gate_id): Linear(in_features=64, out_features=4, bias=True)
    (expert): ModuleList(
      (0-3): 4 x Linear(in_features=192, out_features=192, bias=True)
    )
  )
)
Trainable parameters: 44983132
Thu 15 Jan 2026 16:00:51 INFO epoch 0 training [time: 99.70s, train loss: -28.8769]
Thu 15 Jan 2026 16:00:56 INFO epoch 0 evaluating [time: 2.69s, valid_score: 0.029100]
Thu 15 Jan 2026 16:00:56 INFO valid result: 
rec
…
